Model: EarlyFusionModel
Input Size: [(1, 128, 128), (3, 224, 224)]

--------------------------------------------------------------------------------
Layer (type)               Output Shape         Param #
================================================================================
Conv2d-0                  [-1, 16, 128, 128]   160
ReLU-1                    [-1, 16, 128, 128]   0
MaxPool2d-2               [-1, 16, 64, 64]     0
Conv2d-3                  [-1, 32, 64, 64]     4,640
ReLU-4                    [-1, 32, 64, 64]     0
MaxPool2d-5               [-1, 32, 32, 32]     0
Conv2d-0                  [-1, 16, 224, 224]   448
ReLU-1                    [-1, 16, 224, 224]   0
MaxPool2d-2               [-1, 16, 112, 112]   0
Conv2d-3                  [-1, 32, 112, 112]   4,640
ReLU-4                    [-1, 32, 112, 112]   0
MaxPool2d-5               [-1, 32, 56, 56]     0
Conv2d-0                  [-1, 128, 56, 56]    73,856
ReLU-1                    [-1, 128, 56, 56]    0
MaxPool2d-2               [-1, 128, 28, 28]    0
Flatten-3                 [-1, 100352]         0
Linear-0                  [-1, 256]            25,690,368
ReLU-1                    [-1, 256]            0
Dropout-2                 [-1, 256]            0
Linear-3                  [-1, 256]            65,792
Linear-emotion_fc         [-1, 7]              1,799
Linear-0                  [-1, 1]              257
Sigmoid-1                 [-1, 1]              0
================================================================================
Total params: 25,841,960
Trainable params: 25,841,960
Non-trainable params: 0
--------------------------------------------------------------------------------