Model: LateFusionModel
Input Size: [(1, 128, 128), (3, 224, 224)]

--------------------------------------------------------------------------------
Layer (type)               Output Shape         Param #
================================================================================
AudioModel-audio_model    [-1, 128]            631,047
ImageModel-image_model    [-1, 128]            11,245,767
Linear-0                  [-1, 1]              129
Sigmoid-1                 [-1, 1]              0
Linear-0                  [-1, 1]              129
Sigmoid-1                 [-1, 1]              0
================================================================================
Total params: 11,877,072
Trainable params: 11,877,072
Non-trainable params: 0
--------------------------------------------------------------------------------