Model: MidFusionModel
Input Size: [(1, 128, 128), (3, 224, 224)]

--------------------------------------------------------------------------------
Layer (type)               Output Shape         Param #
================================================================================
AudioModel-audio_model    [-1, 128]            631,047
ImageModel-image_model    [-1, 128]            11,245,767
Linear-0                  [-1, 256]            65,792
ReLU-1                    [-1, 256]            0
Dropout-2                 [-1, 256]            0
Linear-3                  [-1, 256]            65,792
Linear-emotion_fc         [-1, 7]              1,799
Linear-0                  [-1, 1]              257
Sigmoid-1                 [-1, 1]              0
================================================================================
Total params: 12,010,454
Trainable params: 12,010,454
Non-trainable params: 0
--------------------------------------------------------------------------------